scripts/BEST_WALK_ONNX_2.onnx (onnx, 884177 bytes, 10 tensors)

mlp_13_1/sub/ReadVariableOp:0 f4 [101]
0.0012801359 -0.008294642 0.0009181435 -0.037894312 -0.07971656 9.490142 -0.00053059176 0.00033694695
-0.0010356889 0.34301662 -0.0003621775 -0.0005916454 -0.00128438 -0.0011801526 -0.00973807 -0.110660054
0.020382565 0.12295438 0.12725575 -0.046791445 -0.042674366 -0.057646807 0.0048047598 -0.021649566
0.111718446 0.024516193 0.13384771 -1.7492544e-05 -2.0932921e-05 -0.0006413131 0.00031320035 0.0009150579
0.000377025 -1.0020847e-05 -0.00019643908 -0.0001877527 9.3104165e-05 -8.771544e-05 0.00068895594 0.00044379043
0.00091525086 -0.015945667 -0.01181419 -0.4775889 -0.07056926 0.4575867 0.51175976 -0.17207333
-0.17045335 -0.22465365 0.030120602 -0.114812136 0.47852898 -0.05032095 0.50553036 -0.015969556
-0.011879226 -0.47728345 -0.070587225 0.4573906 0.5115373 -0.17197536 -0.17041518 -0.2245488
0.030123243 -0.11483649 0.47818893 -0.050477907 0.50539076 -0.015996667 -0.011931671 -0.47698247
-0.070593536 0.45719337 0.5113215 -0.17187807 -0.17038077 -0.22445953 0.030126167 -0.11486465
0.4778435 -0.050639633 0.5052658 -0.0021054237 0.050054435 -0.74972284 1.3493692 -0.66893077
0.12842876 -0.04344861 -0.042759217 -0.05680344 0.004538591 -0.09400209 0.7549515 1.3656024
-0.6689276 0.8096064 0.8109819 -9.9867604e-05 -3.0302166e-05
00000000: 3cca a73a 40e6 07bc 91af 703a 1137 1bbd
00000010: 7042 a3bd 9fd7 1741 6917 0bba 41a8 b039
00000020: f4bf 87ba e09f af3e a4e2 bdb9 a718 1bba
00000030: a458 a8ba 5aaf 9aba 6d8c 1fbc bda1 e2bd
00000040: 56f9 a63c 82cf fb3d 554f 023e 63a8 3fbd
00000050: 51cb 2ebd 0f1f 6cbd 3f71 9d3b 6e5a b1bc
00000060: a4cc e43d 2fd6 c83c 600f 093e f4bc 92b7
00000070: 1b99 afb7 cb1d 28ba 0a35 a439 7fe0 6f3a
00000080: 70ab c539 361f 28b7 37fb 4db9 7bdf 44b9
00000090: eb40 c338 def3 b7b8 0d9b 343a 8bac e839
000000a0: 72ed 6f3a 7da0 82bc 4e90 41bc 8886 f4be
000000b0: 9e86 90bd ce48 ea3e b002 033f fe33 30be
000000c0: 538b 2ebe 9b0b 66be 7bbf f63c a022 ebbd
000000d0: c001 f53e 571d 4ebd 706a 013f 96d2 82bc
000000e0: 16a1 42bc 7f5e f4be 0990 90bd 1a2f ea3e
000000f0: 1cf4 023f 4f1a 30be 5181 2ebe 1ff0 65be
00000100: 05c5 f63c 652f ebbd 2ed5 f43e ecc1 4ebd
00000110: 4a61 013f 710b 83bc 0e7d 43bc 0c37 f4be
00000120: 5893 90bd 4015 ea3e f7e5 023f ce00 30be
00000130: 4c78 2ebe b8d8 65be 27cb f63c 283e ebbd
00000140: e7a7 f43e 816b 4fbd 1959 013f 26fb 09bb
00000150: e105 4d3d d6ed 3fbf 21b8 ac3f 0c3f 2bbf
00000160: d482 033e 2bf7 31bd 4a24 2fbd b9aa 68bd
00000170: 76b8 943b 2b84 c0bd 8044 413f 0fcc ae3f
00000180: d73e 2bbf 5d42 4f3f 839c 4f3f 0370 d1b8
00000190: 6831 feb7

mlp_13_1/MLP_0_1/hidden_3_1/Cast/ReadVariableOp:0 f4 [128, 28]
-0.031699806 -0.039480176 0.009212948 -0.03915087 -0.046683896 -0.01092888 0.039885603 0.039695192
-0.000552263 0.018532481 0.060641028 0.094244 -0.09123706 0.11208154 0.005158138 -0.013206034
0.013980166 0.03868581 -0.03872244 -0.00430095 0.042489965 0.013922082 0.00502405 0.0056088585
0.027525015 0.12725607 -0.003268084 0.054144695 -0.028271109 0.12561864 0.021110373 -0.0050249444
-0.0941318 -0.06910507 0.043485127 0.05240508 -0.028479254 0.078626454 0.0080903405 0.0034113487
6.3312473e-06 0.044600476 0.024463896 0.021144923 -0.019585866 -0.14015582 -0.088180006 -0.074264534
-0.007362893 -0.061164837 -0.01310952 0.06333277 -0.0023524514 0.019306997 0.021861386 0.037358146
0.0006155508 -0.13393374 0.033502888 -0.0634063 0.07576787 0.017633494 0.03560744 -0.086273745
-0.03235426 -0.006740827 -0.030863918 0.0024750382 0.0527436 -0.015057281 0.064384654 0.05189607
0.06129578 -0.0030249676 0.10698432 -0.010307298 0.03215215 0.030191425 -0.03215007 -0.06703051
-0.015094141 0.013716119 -0.014080036 0.014833299 0.100149505 -0.015153777 0.07774113 0.09726104
-0.09590409 -0.014597779 -0.0054782974 0.049482424 0.033600084 -0.05160151 -0.11448247 -0.15725711
0.031096054 -0.07771217 0.11162628 0.02554041 0.03974732 0.020647943 0.10680279 -0.00158526
0.051264867 0.14043938 0.16652596 0.19104558 0.15347645 0.13046804 0.048852246 0.0752504
-0.04884412 0.026933407 -0.021995237 0.18081966 0.014525939 -0.039901987 -0.09092675 0.014753753
-0.012709099 -0.016919028 -0.07708898 -0.11614065 0.07892349 -0.11665017 0.25857756 0.1393248
0.07684559 0.17054255 0.10159194 0.17614175 0.1968446 0.051236525 0.08647592 -0.030604728
-0.025167465 0.067718364 0.18611737 0.062920816 -0.019780653 -0.00027760927 0.004214673 0.052769758
-0.091605164 -0.04906433 0.045497883 0.0056912205 0.01908635 -0.0073843333 -0.016415775 -0.005168505
0.06954743 -0.026336446 -0.057812806 -0.023338202 -0.082366094 0.03940146 0.011830181 -0.06366981
-0.0080230525 -0.101978935 -0.059999723 -0.0029818616 0.07745914 -0.06071071 0.05588649 -0.053824686
-0.067778 0.03413691 -0.09256284 0.060265392 0.097554006 0.00438936 0.08420339 0.06055458
-0.044679288 -0.018314604 -0.122793615 -0.06954034 -0.03186104 -0.0009791829 0.046687257 0.090124644
0.101371385 -0.03837971 0.09798832 0.04592 -0.007851098 0.05275682 0.009848673 0.01724255
0.0957491 0.019402219 -0.0067675533 -0.0808514 0.018149368 0.026372045 0.016889477 -0.05732646
-0.060337376 -0.08112808 0.025519885 -0.018870423 -0.044347923 0.045208044 0.08255077 -0.046142537
0.061278846 0.05704288 -0.043741863 0.14633867 0.008693104 0.072363816 0.10280936 0.0540034
0.06161771 0.039657466 -0.04920796 -0.005460036 -0.014278029 -0.04228272 0.00668768 -0.0021190548
-0.0537291 -0.057400785 0.050615102 -0.05740371 0.058532845 0.007642283 -0.021887373 0.024604917
0.038194366 0.035177484 0.032651972 -0.029039236 -0.10767154 -0.005471903 0.011076284 -0.017395934
0.019041978 -0.043057382 0.037915617 -0.041749705 -0.024312299 -0.027167834 -0.014140995 0.05779172
-0.0288194 -0.06770611 0.058878023 0.0042078374 0.004406528 -0.016785612 0.14402868 0.00033226007
00000000: a8d7 01bd f7b5 21bd e8f1 163c aa5c 20bd
00000010: 9d37 3fbd 0c0f 33bc 165f 233d 6d97 223d
00000020: bec5 10ba 6ed1 973c ba62 783d 0003 c13d
00000030: 7fda babd 028b e53d 9905 a93b 1f5e 58bc
00000040: 110d 653c 0375 1e3d 6c9b 1ebd fcee 8cbb
00000050: f509 2e3d 7219 643c c9a0 a43b 84ca b73b
00000060: 247c e13c 6a4f 023e 5a2d 56bb d4c6 5d3d
00000070: d098 e7bc 2ca2 003e a9ef ac3c 4aa8 a4bb
00000080: 2cc8 c0bd f586 8dbd 761d 323d b6a6 563d
00000090: 534d e9bc e806 a13d 598d 043c ef90 5f3b
000000a0: 0071 d436 fdae 363d 8268 c83c 1e38 ad3c
000000b0: 8a72 a0bc 0285 0fbe b897 b4bd 0118 98bd
000000c0: 6c44 f1bb fb87 7abd 50c9 56bc 9cb4 813d
000000d0: 962b 1abb b529 9e3c a616 b33c db04 193d
000000e0: ea5c 213a ed25 09be 533a 093d 2adb 81bd
000000f0: 2f2c 9b3d 1e74 903c 1bd9 113d 4ab0 b0bd
00000100: e785 04bd 28e2 dcbb 54d6 fcbc 4034 223b
00000110: ac09 583d d0b2 76bc 1adc 833d f990 543d
00000120: 4911 7b3d 893e 46bb 981a db3d f1df 28bc
00000130: f9b1 033d 0254 f73c cbaf 03bd 4b47 89bd
00000140: 6a4d 77bc 93b9 603c f4af 66bc 5e07 733c
00000150: 2f1b cd3d 8c47 78bc be36 9f3d cc30 c73d
00000160: 5d69 c4bd 862b 6fbc 4a83 b3bb 15ae 4a3d
00000170: 3ea0 093d 1b5c 53bd c975 eabd 0208 21be
00000180: 27bd fe3c 8f27 9fbd 529c e43d 1f3a d13c
00000190: 16ce 223d e025 a93c 6cbb da3d 80c8 cfba
000001a0: 1cfb 513d 57cf 0f3e c885 2a3e 74a1 433e
000001b0: ee28 1d3e 6a99 053e 4b19 483d e21c 9a3d
000001c0: c610 48bd 73a3 dc3c 5b2f b4bc ca28 393e
000001d0: 34fe 6d3c 4470 23bd ce37 babd bab9 713c
000001e0: d339 50bc c699 8abc d4e0 9dbd 26db edbd
000001f0: a4a2 a13d 49e6 eebd 4764 843e 29ab 0e3e
00000200: 3861 9d3d b5a2 2e3e 6f0f d03d 815e 343e
00000210: a191 493e 64dd 513d 4a1a b13d c4b6 fabc
00000220: 002c cebc edaf 8a3d 8d95 3e3e a1dc 803d
00000230: 090b a2bc 168c 91b9 3d1b 8a3b 1a25 583d
00000240: 7d9b bbbd aef7 48bd fd5b 3a3d 6b7d ba3b
00000250: fa5a 9c3c 47f8 f1bb 607a 86bc 905c a9bb
00000260: e26e 8e3d 88bf d7bc 1fcd 6cbd c22f bfbc
00000270: 8eaf a8bd 6d63 213d 60d3 413c 5165 82bd
00000280: 1f73 03bc 55da d0bd 45c2 75bd 566b 43bb
00000290: e6a2 9e3d cbab 78bd 3be9 643d 4677 5cbd
000002a0: 31cf 8abd 25d3 0b3d 9691 bdbd d8d8 763d
000002b0: 65ca c73d 9fd4 8f3b d472 ac3d 1408 783d
000002c0: a101 37bd 8208 96bc 387b fbbd 2a6b 8ebd
000002d0: b980 02bd ed57 80ba 233b 3f3d 4593 b83d
000002e0: cd9b cf3d 0b34 1dbd 1aae c83d 9c16 3c3d
000002f0: e4a1 00bc 8917 583d 545c 213c 4040 8d3c
00000300: 1b18 c43d 67f1 9e3c 5ac2 ddbb 6b95 a5bd
00000310: fcad 943c 300a d83c cd5b 8a3c 26cf 6abd
00000320: 5324 77bd 7b26 a6bd 140f d13c 2596 9abc
00000330: 2ba6 35bd 122c 393d 6110 a93d f5ff 3cbd
00000340: 87ff 7a3d cca5 693d ab2a 33bd ced9 153e
00000350: 856d 0e3c 7b33 943d b78d d23d ab32 5d3d
00000360: da62 7c3d de6f 223d 498e 49bd 1aea b2bb
00000370: 65ee 69bc a530 2dbd 5324 db3b d7df 0abb
00000380: 0b13 5cbd 161d 6bbd c851 4f3d 2720 6bbd
00000390: 23c0 6f3d 1e6c fa3b 264d b3bc 4090 c93c
000003a0: b271 1c3d 4416 103d 13be 053d b1e3 edbc
000003b0: e582 dcbd a64d b3bb 4d79 353c eb81 8ebc
000003c0: ecfd 9b3c f05c 30bd 684d 1b3d bd01 2bbd
000003d0: 962a c7bc 148f debc a2af 67bc 03b7 6c3d
000003e0: aa16 ecbc 80a9 8abd 152a 713d e6e1 893b
000003f0: a364 903b fb81 89bc 417c 133e 3133 ae39

mlp_13_1/MLP_0_1/hidden_3_1/BiasAdd/ReadVariableOp:0 f4 [28]
-0.0014672764 -0.0358279 -0.17413454 -0.016949432 0.166416 0.17957608 -0.04402212 -0.100522734
-0.016939355 -0.006297078 -0.029582236 0.1713696 0.0385757 0.20357957 -0.2891478 -0.25732002
-0.30599985 -0.2887885 -0.30112824 -0.22635107 -0.19971593 -0.19039838 -0.19515441 -0.28121752
-0.2897342 -0.30107665 -0.32487187 -0.33491227
00000000: a051 c0ba 47c0 12bd 5350 32be 89d9 8abc
00000010: f568 2a3e cbe2 373e 8a50 34bd ddde cdbd
00000020: 67c4 8abc b857 cebb 7256 f2bc 837b 2f3e
00000030: 8e01 1e3d 2a77 503e 2e0b 94be 73bf 83be
00000040: 03ac 9cbe 16dc 93be 7b2d 9abe 93c8 67be
00000050: 5582 4cbe cbf7 42be 8fd6 47be befb 8fbe
00000060: 0b58 94be b826 9abe 9b55 a6be 9f79 abbe

mlp_13_1/MLP_0_1/hidden_2_1/Cast/ReadVariableOp:0 f4 [256, 128]
-0.15509847 0.10232903 0.017684355 0.06022236 -0.084199384 0.06101177 0.06893777 -0.09054244
0.061268076 -0.111808375 -0.051278263 0.117655 -0.10765851 0.121482454 -0.1116355 0.0274438
0.14230849 0.055834103 0.033858187 -0.042649034 -0.013313546 -0.12670392 -0.030328928 -0.0737795
-0.18418509 -0.026865428 0.09876649 -0.032131363 -0.06544095 -0.06388741 0.27639836 -0.073973924
0.058513805 0.083926395 0.02488634 0.13368021 0.014318178 -0.24323031 0.05825788 0.031689
-0.079079725 -0.06210773 -0.18743463 0.08796444 -0.0056536477 0.026042236 0.105416715 0.11100822
0.041353695 -0.14080407 0.051014673 -0.088858634 -0.024591448 -0.03166787 0.27493027 0.06402769
0.027534587 -0.20035966 0.03521472 0.05670035 0.19089828 0.054491825 -0.08424971 -0.037410397
0.0958 -0.30896503 -0.15534572 0.0011698226 0.058844756 0.29315135 -0.052190863 -0.03426497
0.10375222 -0.03119737 0.08891465 -0.1959951 0.059485506 0.048692007 -0.04264591 -0.025106413
-0.15519884 0.021961257 -0.04972159 0.037629973 0.013276106 0.04803362 -0.00249387 -0.15420474
-0.10459082 -0.0668522 -0.04119041 0.050653446 0.046795666 0.12160174 0.102945946 0.038825262
0.13529022 0.007038858 -0.092474304 0.0060420414 -0.08453297 -0.0121700885 0.16711822 -0.1269644
0.144726 0.033008333 0.010753848 -0.09628094 -0.012366679 -0.11473577 -0.15673895 -0.15232882
0.0551072 0.17929362 0.07355059 0.09835131 -0.1185892 0.20801365 0.14043082 -0.09916829
-0.029836066 0.096804015 0.085531615 -0.13391772 0.021246983 0.10823442 -0.012507697 -0.11244691
-0.006883051 -0.17949069 0.06399645 -0.04435468 -0.09209805 0.015611524 -0.14761683 -0.016381595
0.0028041748 0.017804652 -0.0150241405 -0.0868533 -0.041644886 0.10074578 -0.008499495 -0.046217263
0.06354522 -0.026197672 -0.07817815 0.07952594 0.118176214 0.025021013 0.102319315 -0.034791056
0.029695833 0.0552054 0.020963162 0.10285503 0.11331388 -0.1021642 -0.04555244 0.047215167
0.014386334 -0.14905387 0.035231955 -0.014928532 -0.20641465 -0.121354274 -0.0090903705 -0.1563085
-0.014187546 0.009317715 -0.199957 0.08554247 0.09561364 0.12988113 0.048518304 -0.02791561
-0.04600059 0.10435816 0.0033984943 -0.019628383 -0.0115292445 0.1032068 0.32206127 0.08750509
-0.046329945 -0.056383356 -0.002169962 0.10281479 -0.0017935163 0.07435226 -0.0027445091 -0.15319103
0.04532639 -0.0076397015 -0.12894768 0.09883663 -0.11840957 0.024779584 0.014959867 0.012973158
-0.19714615 -0.13674325 -0.0037314573 0.053004526 -0.025831718 -0.025473595 0.08405101 -0.026190778
-0.09745893 -0.12778096 0.024742935 -0.025624542 0.03467269 -0.16353074 0.021530144 -0.18054685
0.15207303 -0.1256389 0.026835898 -0.02316601 -0.105145484 -0.042796522 0.01612585 -0.03359307
0.031203259 -0.11052396 -0.11636568 0.11236418 0.016301474 -0.033170853 0.18223673 -0.030363353
0.04730396 -0.09724606 -0.011195039 -0.023287838 0.028882768 -0.18931836 0.012742222 -0.09081469
0.03260144 0.0019267935 0.043417823 -0.06963221 0.000102661055 0.018087635 0.026824187 -0.17299695
-0.07782188 -0.008266464 -0.15778182 0.06596067 -0.022347342 -0.27547407 0.025718167 0.0057937317
00000000: 22d2 1ebe e291 d13d c8de 903c b9ab 763d
00000010: ba70 acbd 7ae7 793d 3f2f 8d3d 516e b9bd
00000020: 3cf4 7a3d cafb e4bd 2809 52bd 1bf5 f03d
00000030: 117c dcbd cbcb f83d 27a1 e4bd d2d1 e03c
00000040: 51b9 113e 4db2 643d e2ae 0a3d c1b0 2ebd
00000050: 0f21 5abc acbe 01be 5f74 f8bc b519 97bd
00000060: 049b 3cbe e314 dcbc 1646 ca3d 2d9c 03bd
00000070: e805 86bd 67d7 82bd 1684 8d3e a47f 97bd
00000080: 2cac 6f3d 9ae1 ab3d 70de cb3c 77e3 083e
00000090: cb96 6a3c 5e11 79be d19f 6e3d 53cc 013d
000000a0: 8df4 a1bd ad64 7ebd ddee 3fbe b326 b43d
000000b0: 3c42 b9bb 8756 d53c b8e4 d73d 4758 e33d
000000c0: 7e62 293d f12e 10be c3f4 503d 84fb b5bd
000000d0: 0174 c9bc 2bb6 01bd a9c3 8c3e f320 833d
000000e0: 3790 e13c 152b 4dbe 4f3d 103d a03e 683d
000000f0: d77a 433e d232 5f3d 1d8b acbd a53b 19bd
00000100: ca32 c43d aa30 9ebe f312 1fbe bc54 993a
00000110: 3307 713d ef17 963e 16c6 55bd 6d59 0cbd
00000120: 0b7c d43d a091 ffbc e218 b63d f1b2 48be
00000130: 13a7 733d 4571 473d 7aad 2ebd f7ab cdbc
00000140: 72ec 1ebe 18e8 b33c dea8 4bbd e321 1a3d
00000150: 0684 593c e7be 443d 3270 23bb d9e7 1dbe
00000160: b633 d6bd cee9 88bd 46b7 28bd fd79 4f3d
00000170: d0ac 3f3d 550a f93d 53d5 d23d 3d07 1f3d
00000180: 8589 0a3e 38a6 e63b 2b63 bdbd 51fc c53b
00000190: 9f1f adbd 0d65 47bc 0a21 2b3e f502 02be
000001a0: 0d33 143e bf33 073d e830 303c f12e c5bd
000001b0: 9c9d 4abc 96fa eabd 2d80 20be 16fc 1bbe
000001c0: 16b8 613d bf98 373e b1a1 963d 696c c93d
000001d0: e5de f2bd 8801 553e 19cd 0f3e bf18 cbbd
000001e0: c46a f4bc 2f41 c63d 332b af3d ba21 09be
000001f0: 270e ae3c 02aa dd3d 15ed 4cbc 914a e6bd
00000200: 378b e1bb 68cc 37be 9210 833d 41ad 35bd
00000210: e79d bcbd 7ac7 7f3c de28 17be b232 86bc
00000220: 3fc6 373b 10db 913c d027 76bc 25e0 b1bd
00000230: d493 2abd ce53 ce3d 7741 0bbc 504e 3dbd
00000240: ff23 823d 809c d6bc de1b a0bd 7fde a23d
00000250: 5f06 f23d def8 cc3c ca8c d13d 1181 0ebd
00000260: ad44 f33c 0f1f 623d f0ba ab3c a8a5 d23d
00000270: 1c11 e83d 773b d1bd 3295 3abd b164 413d
00000280: a9b4 6b3c 94a1 18be 624f 103d cd96 74bc
00000290: 5d5e 53be 9788 f8bd c7ef 14bc 560f 20be
000002a0: e272 68bc 54a9 183c 87c1 4cbe e430 af3d
000002b0: 16d1 c33d 8fff 043e 21bb 463d 47af e4bc
000002c0: 1d6b 3cbd bbb9 d53d 46b9 5e3b b4cb a0bc
000002d0: 28e5 3cbc 165e d33d 37e5 a43e de35 b33d
000002e0: 78c4 3dbd 3cf2 66bd ec35 0ebb 9090 d23d
000002f0: 6c14 ebba ff45 983d 39dd 33bb 1cde 1cbe
00000300: 2aa8 393d 7656 fabb dc0a 04be dc6a ca3d
00000310: b780 f2bd 8efe ca3c 3b1a 753c 5e8d 543c
00000320: aee0 49be 6c06 0cbe 778b 74bb 461b 593d
00000330: 0a9d d3bc 00ae d0bc f022 ac3d 0b8e d6bc
00000340: 8c98 c7bd 03d9 02be b2b1 ca3c 8fea d1bc
00000350: f304 0e3d 9a74 27be fc5f b03c 46e1 38be
00000360: 08b9 1b3e 7ca7 00be f5d6 db3c a5c6 bdbc
00000370: 8456 d7bd 684b 2fbd 5c1a 843c e398 09bd
00000380: fa9d ff3c 635a e2bd 2151 eebd 311f e63d
00000390: ab8a 853c 29de 07bd 449c 3a3e 91bc f8bc
000003a0: ccc1 413d f128 c7bd 666b 37bc 23c6 bebc
000003b0: 8e9b ec3c acdc 41be c1c4 503c 0dfd b9bd
000003c0: 1689 053d 768c fc3a e3d6 313d 559b 8ebd
000003d0: bc4b d738 852c 943c 66be db3c 1d26 31be
000003e0: 1461 9fbd 1070 07bc 8f91 21be 6316 873d
000003f0: c611 b7bc f00a 8dbe e8ae d23c 58d9 bd3b

mlp_13_1/MLP_0_1/hidden_2_1/BiasAdd/ReadVariableOp:0 f4 [128]
-0.11449928 -0.1091447 -0.13287517 -0.13441809 -0.34122723 -0.08103924 -0.0827715 -0.15831831
-0.11886271 -0.45678142 -0.11225537 -0.091165885 -0.1308763 -0.061450224 -0.07060464 -0.11324694
-0.101984285 -0.4418622 -0.15458894 -0.050077338 -0.35578728 -0.12074271 -0.15261453 -0.01710155
-0.16363889 -0.17520481 -0.22751212 0.00762331 -0.05444262 -0.14963436 -0.46140546 -0.04009779
0.004793216 -0.11434796 -0.2873636 -0.35207483 -0.16250457 -0.07722285 -0.09240056 -0.04222532
-0.09208737 0.007940577 -0.17802024 -0.22324792 -0.065334775 -0.22447553 -0.08364959 -0.11743854
-0.50357014 -0.12176338 -0.44270626 -0.101161554 -0.19534126 -0.29780063 -0.5007701 -0.12646851
-0.06915556 -0.076508924 -0.39730102 -0.09828034 -0.19119143 0.03804121 -0.4301937 -0.06698907
-0.036721002 -0.030868648 -0.34458005 0.009002115 -0.019929353 -0.26591796 -0.051456157 -0.012626944
-0.07897287 -0.036709715 -0.2803878 -0.13280858 -0.024245823 -0.042228818 -0.39769223 -0.017123686
-0.10911582 -0.12519397 -0.037699267 -0.116181694 -0.13317785 -0.18604937 -0.025705714 -0.07557409
-0.18141519 -0.037074227 -0.18948871 -0.31662783 -0.010882675 -0.05293844 -0.11967387 -0.008890109
-0.23527123 -0.12586978 -0.1418001 -0.099676535 -0.33974975 -0.11635561 -0.58934265 -0.06779868
-0.27441084 -0.3937812 -0.08532685 -0.07266166 -0.26949582 -0.057677202 -0.33361605 -0.027432574
0.03550585 -0.070456564 -0.042579915 -0.1324467 -0.042148814 -0.17822596 -0.04274885 -0.095881365
-0.28333536 0.011919913 -0.10309607 -0.25704253 -0.35593832 -0.10789189 -0.4324729 -0.23524652
00000000: 997e eabd 4287 dfbd 6e10 08be e5a4 09be
00000010: 56b5 aebe e7f7 a5bd 1b84 a9bd 321e 22be
00000020: 4b6e f3bd 41df e9be 25e6 e5bd 2eb5 babd
00000030: 7004 06be 3bb3 7bbd 2a99 90bd 03ee e7bd
00000040: 23dd d0bd c33b e2be 904c 1ebe e51d 4dbd
00000050: c029 b6be f447 f7bd fc46 1cbe 8d18 8cbc
00000060: f490 27be e468 33be f0f8 68be f6cc f93b
00000070: 3aff 5ebd c039 19be 563d ecbe 953d 24bd
00000080: 6910 9d3b 432f eabd 5221 93be 2743 b4be
00000090: 9967 26be 0327 9ebd 813c bdbd 75f4 2cbd
000000a0: 4e98 bcbd 3219 023c f04a 36be 1a9b 64be
000000b0: 3dce 85bd eadc 65be 7a50 abbd 9e83 f0bd
000000c0: f9e9 00bf 145f f9bd 65aa e2be ca2d cfbd
000000d0: 8a07 48be 5379 98be 7832 00bf f680 01be
000000e0: 6ea1 8dbd b6b0 9cbd 0a6b cbbe 3447 c9bd
000000f0: b0c7 43be 1ad1 1b3d 5942 dcbe 9131 89bd
00000100: c368 16bd 3fe0 fcbc cc6c b0be 9b7d 133c
00000110: e242 a3bc 6626 88be b1c3 52bd 3ee1 4ebc
00000120: 87bc a1bd ed5c 16bd fd8e 8fbe f9fe 07be
00000130: 2d9f c6bc 20f8 2cbd 519e cbbe f946 8cbc
00000140: 1d78 dfbd d932 00be 8c6a 1abd abf0 edbd
00000150: c65f 08be ba83 3ebe ca94 d2bc 97c6 9abd
00000160: e7c4 39be 25db 17bd 5409 42be 0b1d a2be
00000170: 3f4d 32bc fad5 58bd 9317 f5bd d2a7 11bc
00000180: f1ea 70be 02e4 00be 0c34 11be 3623 ccbd
00000190: aef3 adbe da4b eebd 29df 16bf 09da 8abd
000001a0: 947f 8cbe b09d c9be d8bf aebd a3cf 94bd
000001b0: 5bfb 89be ee3e 6cbd b9cf aabe 47ba e0bc
000001c0: 956e 113d 884b 90bd 4768 2ebd 1ca0 07be
000001d0: 3ca4 2cbd de80 36be 6b19 2fbd 735d c4bd
000001e0: 5511 91be bd4b 433c 0824 d3bd 149b 83be
000001f0: 8c3d b6be 6cf6 dcbd 176d ddbe 77e4 70be

mlp_13_1/MLP_0_1/hidden_1_1/Cast/ReadVariableOp:0 f4 [512, 256]
0.11265672 0.009928042 -0.009938508 -0.0036051073 0.05899613 -0.0059278724 0.2366353 0.1933002
0.25160673 0.06926351 0.049947217 0.15192959 -0.26885486 0.14166205 0.12968828 -0.20333588
0.056270886 0.18789063 -0.42900637 0.12914656 -0.038956705 0.14198315 0.23084654 -0.046043582
0.06358975 -0.12852935 -0.035765592 -0.0834075 -0.017592287 0.074882165 -0.059436142 -0.006474947
0.19516458 -0.24540819 0.28094804 -0.032195594 -0.08784429 -0.108434394 -0.20018326 0.018734083
0.07703198 -0.085154906 -0.08190767 -0.20703575 0.11636705 0.16999842 -0.14238255 -0.078252636
0.16125047 -0.14128861 0.02608083 -0.07963763 0.068748966 0.060324084 -0.04775152 -0.027420698
-0.04935095 0.06255735 0.028572636 -0.11650461 0.007426152 -0.14659007 0.05184734 -0.021348657
-0.0043292306 -0.19674228 0.032345623 -0.0045624264 -0.12329629 0.09721781 -0.109208 -0.015781093
0.05323301 -0.1376154 0.011050416 0.05780036 0.07995211 0.05104969 -0.015012587 -0.045287687
0.14078963 0.051700287 0.055105764 0.0923774 -0.13419867 0.018557059 0.16186532 0.079761945
0.08475738 -0.21383747 -0.0611876 -0.007021326 0.170538 -0.06968542 -0.036510058 0.040433686
-0.13469917 0.091205366 0.03836624 -0.15252414 -0.028320663 0.1565868 0.3778359 0.023951134
-0.116135776 -0.046145078 -0.12831932 0.10269746 -0.010630204 -0.01944905 0.20808169 0.12467036
-0.010483363 0.0019216768 -0.118295856 -0.19357418 0.030960442 -0.13648531 0.033405457 -0.024601627
0.29261875 -0.040529232 -0.104669794 -0.11155943 0.051956862 0.094601214 0.05157361 0.02615828
-0.1943286 0.12866566 -0.110454544 -0.14446646 -0.05085408 0.20461853 0.24643156 0.0176666
0.07522193 -0.122148424 0.19709033 0.029985003 -0.017616406 0.21068676 0.39785045 -0.016380588
-0.075763 -0.10544076 -0.037209343 0.0853769 -0.059697274 0.023659764 -0.054105453 0.029155586
-0.042477466 0.034445215 -0.11518575 -0.0758521 0.21762234 -0.15093568 -0.049195226 -0.048543204
-0.0014616806 0.16546541 -0.10312535 0.037079174 0.037974477 0.04824706 -0.12749745 -0.012319291
0.17031956 0.09790085 0.039409444 -0.01014758 0.08516228 0.14064735 0.08584473 0.10470846
0.046212565 0.19787475 -0.065086946 -0.07308859 -0.3061531 0.21322212 0.18666099 0.20950626
0.38620257 -0.09295754 0.053691257 -0.084651195 -0.0861327 0.050439704 0.039668657 0.049902443
0.19026011 -0.16764124 -0.069455095 0.021135822 -0.12527768 0.045477603 0.17879249 0.04593664
0.07018887 -0.004279002 0.035678227 -0.07510144 0.06799197 0.024120213 -0.10498397 0.081012465
-0.038027167 -0.057109017 -0.104403116 -0.22081025 -0.022129947 0.07137087 -0.16441076 -0.014637808
-0.09736557 -0.025480738 -0.18886842 0.017455293 -0.041268464 -0.026691042 -0.06039947 0.17056036
0.09697379 -0.09146675 0.04697088 -0.05148253 -0.004182871 -0.04605375 -0.010635357 0.06481749
0.21447982 -0.13496271 0.037450895 0.07798197 0.0019463107 -0.11112407 -0.06589131 0.0822811
0.19099066 0.040426113 0.0031566112 -0.13842279 -0.122915596 -0.100959994 -0.07662771 0.13432595
0.004713122 0.0038378236 -0.04112227 0.115331456 -0.10439114 0.060583062 -0.05320045 0.20615587
00000000: 91b8 e63d 3aa9 223c 20d5 22bc aa43 6cbb
00000010: eda5 713d 993e c2bb 8650 723e 7df0 453e
00000020: 99d2 803e 07da 8d3d 7495 4c3d 6e93 1b3e
00000030: 58a7 89be db0f 113e 01cd 043e 4837 50be
00000040: 4d7c 663d 6766 403e b9a6 dbbe ff3e 043e
00000050: 1191 1fbd 0864 113e 0963 6c3e 3298 3cbd
00000060: 583b 823d 339d 03be f17e 12bd 8dd1 aabd
00000070: b31d 90bc d25b 993d 5073 73bd cb2b d4bb
00000080: 39d9 473e 494c 7bbe 6cd8 8f3e 87df 03bd
00000090: b5e7 b3bd da12 debd d7fc 4cbe 3878 993c
000000a0: f1c2 9d3d b265 aebd 35bf a7bd 2e01 54be
000000b0: d951 ee3d 1114 2e3e bbcc 11be eb42 a0bd
000000c0: d81e 253e f6ad 10be 77a7 d53c 0e19 a3bd
000000d0: 42cc 8c3d 6316 773d 1997 43bd 5fa1 e0bc
000000e0: 3924 4abd 111e 803d 2911 ea3c f899 eebd
000000f0: 1457 f33b b51b 16be e05d 543d 61e3 aebc
00000100: 38dc 8dbb cf76 49be d87c 043d 6880 95bb
00000110: c482 fcbd 221a c73d 72a8 dfbd 5a47 81bc
00000120: db0a 5a3d 0deb 0cbe ce0c 353c 12c0 6c3d
00000130: efbd a33d 7b19 513d 5bf7 75bc 957f 39bd
00000140: 282b 103e aec3 533d 95b6 613d 5d30 bd3d
00000150: 606b 09be f904 983c 06c0 253e 3b5a a33d
00000160: 4795 ad3d 36f8 5abe d99f 7abd 2713 e6bb
00000170: 83a1 2e3e 3bb7 8ebd 928b 15bd cb9d 253d
00000180: 94ee 09be e1c9 ba3d eb25 1d3d 4a2f 1cbe
00000190: bc00 e8bc 4a58 203e b573 c13e 2b35 c43c
000001a0: 98d8 edbd 9f02 3dbd 2466 03be 0c53 d23d
000001b0: 4f2a 2ebc 9d53 9fbc 5e13 553e 2c53 ff3d
000001c0: 69c2 2bbc c6e0 fb3a 1945 f2bd 4f38 46be
000001d0: c1a0 fd3c cec2 0bbe 29d4 083d 5a89 c9bc
000001e0: 20d2 953e fb01 26bd 1e5d d6bd 4579 e4bd
000001f0: b8d0 543d 48be c13d da3e 533d e449 d63c
00000200: 14fe 46be eec0 033e fe35 e2bd 04ef 13be
00000210: 5e4c 50bd 8587 513e 8e58 7c3e 8cb9 903c
00000220: f50d 9a3d f428 fabd 0cd2 493e 1ca3 f53c
00000230: 4850 90bc 45be 573e 0eb3 cb3e 9530 86bc
00000240: a229 9bbd 53f1 d7bd d368 18bd 16da ae3d
00000250: 2185 74bd 1fd2 c13c ae9d 5dbd b2d7 ee3c
00000260: dafc 2dbd 6d16 0d3d 82e6 ebbd 5958 9bbd
00000270: 64d8 5e3e e28e 1abe ef80 49bd 3dd5 46bd
00000280: dd95 bfba c46f 293e 6233 d3bd 55e0 173d
00000290: 208b 1b3d b69e 453d b18e 02be dad6 49bc
000002a0: 4068 2e3e 3e80 c83d cc6b 213d 0942 26bc
000002b0: 9069 ae3d dc05 103e 5dcf af3d 6471 d63d
000002c0: 6349 3d3d ae9f 4a3e 4e4c 85bd 78af 95bd
000002d0: 19c0 9cbe e656 5a3e 0f24 3f3e cf88 563e
000002e0: 58bc c53e 8660 bebd 5deb 5b3d 9b5d adbd
000002f0: 5766 b0bd dd99 4e3d 9a7b 223d 8166 4c3d
00000300: 8cd3 423e 25aa 2bbe 793e 8ebd 0825 ad3c
00000310: cb48 00be b946 3a3d 6115 373e 0f28 3c3d
00000320: 2fbf 8f3d df36 8cbb 5523 123d c9ce 99bd
00000330: 603f 8b3d c197 c53c d601 d7bd dde9 a53d
00000340: 60c2 1bbd 25eb 69bd 4dd1 d5bd 151c 62be
00000350: dd49 b5bc e42a 923d 4b5b 28be 6bd3 6fbc
00000360: 9a67 c7bd fbbc d0bc b966 41be 67fe 8e3c
00000370: 1f09 29bd 2ca7 dabc 6f65 77bd 60a7 2e3e
00000380: 329a c63d eb52 bbbd 8a64 403d 58df 52bd
00000390: 7710 89bb dba2 3cbd ec3f 2ebc 08bf 843d
000003a0: 99a0 5b3e aa33 0abe 1c66 193d 03b5 9f3d
000003b0: 5a1b ff3a 0495 e3bd 06f2 86bd fe82 a83d
000003c0: 0e93 433e da95 253d 26df 4e3b b4be 0dbe
000003d0: 2cbb fbbd 1dc4 cebd fdee 9cbd be8c 093e
000003e0: 8870 9a3b ff83 7b3b d36f 28bd e632 ec3d
000003f0: 06cb d5bd f225 783d b7e8 59bd 861a 533e

mlp_13_1/MLP_0_1/hidden_1_1/BiasAdd/ReadVariableOp:0 f4 [256]
-0.18645746 -0.012793351 -0.16939516 -0.018654048 -0.088282995 -0.22338985 -0.11374546 -0.2962224
-0.31309187 -0.07986457 -0.133296 -0.1902182 -0.14373194 -0.27559638 -0.1520527 -0.1096041
-0.22888438 -0.29702485 -0.16411991 -0.062306263 -0.1910551 -0.3000692 -0.077587 -0.2879323
-0.1965685 -0.35263708 -0.014427548 -0.22285865 -0.08607208 -0.14286394 -0.14031088 -0.22206639
-0.2739167 -0.087422185 -0.23232073 -0.24498537 -0.2360276 -0.19940703 -0.22350964 -0.22378817
-0.23648494 -0.22296162 -0.1819813 -0.23680645 -0.17044157 -0.13415614 -0.26729816 -0.21798657
-0.22096239 -0.055377867 -0.20626742 -0.31660083 -0.2742075 -0.15958086 -0.17679703 -0.2610632
-0.2481993 -0.26915163 -0.17368822 -0.23121615 -0.06511151 -0.18591255 -0.3082939 -0.35500598
-0.27628124 -0.034722593 -0.065961376 -0.16321367 -0.31643206 -0.051791195 -0.34733897 -0.23032093
-0.25669724 -0.16983908 -0.23568107 -0.14007561 -0.22259185 -0.07447262 -0.21842694 -0.16053903
-0.20199864 -0.30895627 -0.25198865 -0.20008019 -0.09815625 -0.30388477 -0.23834522 -0.19242688
-0.24240583 -0.17481448 -0.040943496 -0.15034762 -0.31201023 -0.20509098 -0.18844181 -0.1995379
-0.26576895 -0.21414316 -0.14042106 -0.33316547 -0.18372472 -0.26950458 -0.23124576 -0.15899704
-0.12956645 -0.18155113 -0.07686947 -0.2934507 -0.14633724 -0.22555886 -0.20426363 -0.27126682
-0.106346354 -0.24953309 -0.15160042 -0.17713144 -0.21824127 -0.24744919 -0.13778664 -0.25607517
-0.21651796 -0.1567632 -0.13424748 -0.16997263 -0.2991325 -0.28228498 -0.028421523 -0.23931699
-0.28389943 -0.14475466 -0.16390945 -0.22320348 -0.1693996 -0.21683475 -0.30042315 -0.2285088
-0.26878518 -0.29067615 -0.15272525 -0.32320625 -0.16087669 -0.21971156 -0.28632426 -0.10874626
-0.19923683 -0.24520978 -0.0044763777 -0.2080456 -0.22070059 -0.229951 -0.42300242 -0.1459959
-0.20491241 -0.30331594 -0.17609674 -0.048801266 -0.23164305 -0.3081129 -0.22947294 -0.1831082
-0.115903825 -0.17486322 -0.19686161 -0.17677231 -0.097863905 -0.27930441 -0.27950212 -0.273625
-0.24241082 -0.17319146 -0.15395097 -0.2431946 -0.13714588 -0.11065963 -0.15203187 -0.19461289
-0.31108052 -0.09263928 0.08431608 -0.2424453 -0.25480136 -0.14505383 -0.22435139 -0.26154414
-0.29554152 -0.26631597 -0.13416518 -0.24106805 -0.0020837192 0.025408236 -0.05442833 -0.075666085
-0.21377572 -0.20484485 -0.21326564 -0.2790644 -0.17174515 -0.16523483 -0.01864234 -0.25817513
-0.28641415 -0.089630686 -0.14014378 -0.14260416 -0.27706635 -0.27067858 -0.22112703 -0.23351389
-0.07041708 -0.18415944 -0.061911236 -0.1504602 -0.20832697 -0.18827248 -0.3050745 -0.2553557
0.029799087 -0.069278695 -0.14378195 -0.2775871 -0.20694938 -0.13125522 -0.26175705 -0.30618262
-0.3174933 -0.17517494 -0.12717368 -0.1706555 -0.08284131 -0.12602396 -0.1647623 -0.20636703
-0.15169367 -0.16619927 -0.07076163 -0.15822117 -0.13108721 -0.23526093 -0.176056 -0.27473542
-0.24345255 -0.23257208 -0.33028862 -0.18238303 -0.1129413 -0.28284636 -0.2297738 -0.035895463
-0.17656706 -0.30360135 -0.096096456 -0.24021597 -0.15986821 -0.16692302 -0.13591836 -0.2948533
00000000: b4ee 3ebe 349b 51bc ed75 2dbe 60d0 98bc
00000010: b7cd b4bd 4fc0 64be 61f3 e8bd 76aa 97be
00000020: 944d a0be 0990 a3bd bf7e 08be 8fc8 42be
00000030: 772e 13be f81a 8dbe b4b3 1bbe 1d78 e0bd
00000040: ab60 6abe a413 98be 0d0f 28be da34 7fbd
00000050: f3a3 43be aca2 99be efe5 9ebd dd6b 93be
00000060: 4149 49be d98c b4be 8661 6cbc 0f35 64be
00000070: 8f46 b0bd ed4a 12be a8ad 0fbe 5f65 63be
00000080: cf3e 8cbe 670a b3bd 7ce5 6dbe 72dd 7abe
00000090: 38b1 71be 5b31 4cbe b6df 64be ba28 65be
000000a0: 1c29 72be 0d50 64be 4e59 3abe 647d 72be
000000b0: 3c88 2ebe 3a60 09be 4edb 88be df37 5fbe
000000c0: f743 62be e7d3 62bd c437 53be 8119 a2be
000000d0: ed64 8cbe 2a69 23be 480a 35be 13aa 85be
000000e0: f527 7ebe 3ece 89be 53db 31be edc3 6cbe
000000f0: 2f59 85bd dc5f 3ebe b3d8 9dbe 58c3 b5be
00000100: bc74 8dbe 4739 0ebd c216 87bd 7c21 27be
00000110: 6203 a2be 0123 54bd 6ad6 b1be 40d9 6bbe
00000120: d26d 83be 4cea 2dbe 6156 71be fb6f 0fbe
00000130: 1eef 63be 1a85 98bd 50ab 5fbe 5864 24be
00000140: bbd8 4ebe 842f 9ebe a804 81be d2e1 4cbe
00000150: 2506 c9bd c996 9bbe c510 74be 8d0b 45be
00000160: 3c39 78be 9102 33be 5eb4 27bd baf4 19be
00000170: cebf 9fbe 5f03 52be e4f6 40be aa53 4cbe
00000180: de12 88be 5848 5bbe 8aca 0fbe aa94 aabe
00000190: 5522 3cbe 81fc 89be b0cb 6cbe 1fd0 22be
000001a0: 11ad 04be 8ae8 39be be6d 9dbd 2c3f 96be
000001b0: 6ed9 15be e7f8 66be 7c2a 51be 7ce3 8abe
000001c0: 1ecc d9bd 9a85 7fbe 243d 1bbe f261 35be
000001d0: a47a 5fbe 5263 7dbe f117 0dbe 491c 83be
000001e0: e2b6 5dbe 8886 20be 2c78 09be 4e0d 2ebe
000001f0: e527 99be a887 90be 41d4 e8bc 830f 75be
00000200: 445b 91be 913a 14be e1d7 27be 748f 64be
00000210: 1777 2dbe ee09 5ebe 10d1 99be 36fe 69be
00000220: 369e 89be 81d3 94be 0264 1cbe 4a7b a5be
00000230: dcbc 24be 11fc 60be 1899 92be 5cb6 debd
00000240: bd04 4cbe 4618 7bbe 94ae 92bb e809 55be
00000250: 56ff 61be 4678 6bbe c693 d8be f37f 15be
00000260: 8fd4 51be 3a4c 9bbe b452 34be d6e3 47bd
00000270: d633 6dbe f9c0 9dbe f4fa 6abe b780 3bbe
00000280: fc5e edbd 580f 33be 1796 49be cd03 35be
00000290: df6c c8bd fd00 8fbe e71a 8fbe 9318 8cbe
000002a0: 8b3a 78be 1a59 31be 53a5 1dbe 0108 79be
000002b0: f86f 0cbe 84a1 e2bd 3eae 1bbe 9a48 47be
000002c0: f245 9fbe aab9 bdbd e9ad ac3d 9543 78be
000002d0: 5375 82be fe88 14be 5fbc 65be 1de9 85be
000002e0: 3851 97be 915a 88be 9962 09be 8bda 76be
000002f0: 028f 08bb ef24 d03c 3ef0 5ebd d2f6 9abd
00000300: 06e8 5abe d9c2 51be 4f62 5abe 87e1 8ebe
00000310: f6dd 2fbe 5233 29be d2b7 98bc 882f 84be
00000320: e0a4 92be 4b90 b7bd da81 0fbe d306 12be
00000330: a4db 8dbe 6296 8abe 206f 62be 441e 6fbe
00000340: d436 90bd 4b94 3cbe a396 7dbd 3d12 1abe
00000350: aa53 55be 80ca 40be ba32 9cbe fbbd 82be
00000360: 371d f43c fde1 8dbd 933b 13be e51f 8ebe
00000370: 8aea 53be c567 06be 0505 86be f8c3 9cbe
00000380: 7b8e a2be 0f61 33be d139 02be 51c0 2ebe
00000390: b4a8 a9bd 6d0c 01be 73b7 28be e151 53be
000003a0: 9655 1bbe 2430 2abe 79eb 90bd bb04 22be
000003b0: ba3b 06be 3ee8 70be 0648 34be 1faa 8cbe
000003c0: a04b 79be 6027 6ebe 971b a9be 9ec2 3abe
000003d0: c54d e7bd 3dd1 90be d349 6bbe 1f07 13bd
000003e0: ffcd 34be a371 9bbe 38ce c4bd 2dfb 75be
000003f0: 7eb4 23be deed 2abe 2f2e 0bbe 03f7 96be

mlp_13_1/MLP_0_1/hidden_0_1/Cast/ReadVariableOp:0 f4 [101, 512]
-0.09970606 -0.20744826 -0.3127071 0.06164054 -0.2013274 0.18514806 -0.114900604 -0.3263699
-0.17259936 0.07673339 -0.16080235 -0.27044874 -0.30373144 -0.36571497 -0.049527727 -0.037617967
0.38346532 0.021561852 0.3211857 -0.0669723 0.33286595 -0.098207764 -0.020279828 -0.27364525
0.21246229 -0.05447362 0.22878821 0.06428342 -0.33771256 0.040769726 0.1557532 0.19266565
0.3079481 -0.26120555 -0.08134692 0.18661952 -0.10094956 -0.2225055 -0.21027549 0.34305355
0.1122426 0.28908136 -0.2234155 0.26889047 -0.25133887 -0.035753213 -0.13495156 0.074115664
0.10306523 0.12297145 -0.010279756 -0.31442302 -0.17663798 0.15083642 -0.030686634 -0.19146518
0.054382797 -0.018134434 -0.22449282 0.020981569 0.3264494 -0.086819604 0.12438855 -0.26840115
0.097380765 -0.012199366 0.050279338 -0.2989899 0.22501534 -0.12068777 0.1430799 -0.46223474
0.04493014 -0.26228917 0.1947573 -0.18750414 0.19436724 -0.48510286 -0.14134069 0.085612915
0.14324099 0.14687553 -0.21139742 0.017224412 -0.20655572 0.07323941 -0.08016806 -0.23567505
-0.16613612 0.012732018 0.18254647 0.29970023 -0.52515167 -0.08984629 -0.35708663 -0.16950937
-0.24181497 0.50584835 0.056978483 0.513079 0.16042532 0.22249109 0.05412393 -0.35145125
-0.04320835 -0.18852307 -0.31485417 0.31438625 -0.18935317 0.16748519 0.12453471 0.46204153
-0.22619896 0.124517135 -0.11799883 0.0773116 -0.113770865 0.040972237 0.15460478 -0.027679287
0.53522456 -0.06435927 -0.12635282 0.5839826 -0.12490305 0.25720164 -0.29892665 0.12378602
0.064339764 0.43357688 0.075314455 -0.33831272 0.11586152 0.0750957 -0.1774382 0.15292181
-0.046466667 0.30285612 -0.36572546 0.16583532 0.20711152 0.53069085 0.13930054 0.1584798
0.19645043 -0.21159557 -0.16931753 0.3753004 0.41391867 0.03071566 -0.28759035 0.21235287
-0.34747326 0.02632763 0.15854993 -0.103200115 0.023563767 0.1732827 0.10401676 -0.18713258
-0.010661671 0.13501997 0.1740799 -0.33934784 0.108050495 0.054246105 -0.011395424 0.04813325
0.018627519 -0.37308124 0.48824853 0.13811602 -0.36552113 -0.051280938 0.13353175 0.45360774
-0.28984115 -0.36650172 -0.08857298 0.068789236 0.16257492 0.048701048 -0.56702065 -0.29919955
-0.32760817 0.08494679 0.031618007 -0.06242815 0.24167421 0.21156952 -0.12485044 0.12818232
-0.035073362 0.07584928 0.13212317 -0.36091885 -0.066468924 0.094618194 0.38519323 -0.20296441
-0.26918188 -0.18287474 -0.023376664 -0.09512037 -0.3985115 0.16314575 -0.17469877 0.2226075
-0.18992817 0.041957144 -0.35561746 -0.18094793 -0.28798953 -0.003874488 -0.3537021 0.040449984
-0.13665791 -0.3563238 0.23220421 -0.030624762 0.20770395 0.08715355 0.014062085 0.14515042
0.37567395 0.10490671 -0.06767317 0.066937156 0.28838181 -0.4467893 -0.23761705 -0.2588314
0.3121939 0.33007762 0.17746545 -0.08551506 0.10577033 0.20597348 0.18667245 0.096402906
-0.109040976 -0.43039018 -0.08527469 -0.21612321 0.24598685 0.2675201 0.12894164 0.1846695
-0.06397498 -0.123464845 0.069627695 0.31272572 -0.1257636 0.19670193 -0.17350902 -0.022309413
00000000: b132 ccbd 516d 54be 251b a0be ca7a 7c3d
00000010: c528 4ebe 7497 3d3e 0251 ebbd f519 a7be
00000020: e3bd 30be 6526 9d3d 5fa9 24be 4278 8abe
00000030: b082 9bbe fe3e bbbe 96dd 4abd 4c15 1abd
00000040: 9155 c43e 7ba2 b03c 7472 a43e c628 89bd
00000050: 686d aa3e 2721 c9bd e221 a6bc 3b1b 8cbe
00000060: b78f 593e bb1f 5fbd 7547 6a3e 07a7 833d
00000070: a9e8 acbe 28fe 263d c47d 1f3e 254a 453e
00000080: 60ab 9d3e bcbc 85be 3799 a6bd 3019 3f3e
00000090: a5be cebd 7bd8 63be 7552 57be b7a4 af3e
000000a0: 73df e53d 7902 943e 08c7 64be 03ac 893e
000000b0: 7daf 80be f671 12bd be30 0abe f4c9 973d
000000c0: dd13 d33d 75d8 fb3d 6c6c 28bc 0efc a0be
000000d0: 96e0 34be dd74 1a3e 8962 fbbc 730f 44be
000000e0: 7fc0 5e3d aa8e 94bc 72e1 65be 8ae1 ab3c
000000f0: 6024 a73e 7ace b1bd 6dbf fe3d e06b 89be
00000100: 916f c73d dadf 47bc b5f1 4d3d 3415 99be
00000110: 6c6a 663e 262b f7bd 8a83 123e 08aa ecbe
00000120: ab08 383d c44a 86be 756e 473e 1601 40be
00000130: 3508 473e 675f f8be 9dbb 10be d355 af3d
00000140: c4ad 123e 8a66 163e 9178 58be 361a 8d3c
00000150: 5883 53be 8bfe 953d 272f a4bd cd54 71be
00000160: 961f 2abe f499 503c 76ed 3a3e 4f72 993e
00000170: 5770 06bf 5501 b8bd 0fd4 b6be dd93 2dbe
00000180: 589e 77be 477f 013f 4562 693d 2559 033f
00000190: 8946 243e b4d4 633e 0eb1 5d3d 6bf1 b3be
000001a0: 3dfb 30bd 310c 41be 9134 a1be 3cf7 a03e
000001b0: cce5 41be 3d81 2b3e 0e0c ff3d b590 ec3e
000001c0: b3a0 67be d702 ff3d 5fa9 f1bd 8b55 9e3d
000001d0: b300 e9bd 81d2 273d b750 1e3e acbf e2bc
000001e0: 7a04 093f cbce 83bd a262 01be e27f 153f
000001f0: 2ccd ffbd efaf 833e ea0c 99be 8683 fd3d
00000200: 91c4 833d cafd dd3e 773e 9a3d 5337 adbe
00000210: ce48 ed3d c6cb 993d 5cb2 35be 8997 1c3e
00000220: d553 3ebd f50f 9b3e 5e40 bbbe bcd0 293e
00000230: 0b15 543e 5bdb 073f cda4 0e3e 8748 223e
00000240: 4d2a 493e 82ac 58be 9361 2dbe 6027 c03e
00000250: 26ed d33e 689f fb3c 0b3f 93be 0873 593e
00000260: 04e8 b1be 0bad d73c ea5a 223e 955a d3bd
00000270: cd08 c13c 0571 313e bd06 d53d af9f 3fbe
00000280: 4aae 2ebc ad42 0a3e 0042 323e 00bf adbe
00000290: 9449 dd3d 2a31 5e3d dfb3 3abc 5f27 453d
000002a0: bd98 983c 8104 bfbe b6fb f93e 496e 0d3e
000002b0: 9625 bbbe f60b 52bd 8cbc 083e 463f e83e
000002c0: 0f66 94be 1da6 bbbe c065 b5bd 5fe1 8c3d
000002d0: 0a7a 263e c07a 473d 4428 11bf af30 99be
000002e0: 42bc a7be 95f8 ad3d e281 013d a9b4 7fbd
000002f0: 7279 773e aea5 583e 96b1 ffbd 3a42 033e
00000300: 16a9 0fbd de56 9b3d 4c4b 073e 5bca b8be
00000310: dc20 88bd 2fc7 c13d 0c38 c53e e7d5 4fbe
00000320: 35d2 89be 8443 3bbe 6b80 bfbc 78ce c2bd
00000330: b309 ccbe ae0f 273e 3ce4 32be 38f3 633e
00000340: 887c 42be 41db 2b3d 7e13 b6be 6a4a 39be
00000350: 5d73 93be 1feb 7dbb 7118 b5be e2ae 253d
00000360: 0df0 0bbe 1370 b6be f1c6 6d3e c8e0 fabc
00000370: 58b0 543e 8f7d b23d a964 663c 50a2 143e
00000380: 5658 c03e 54d9 d63d 3b98 8abd 5916 893d
00000390: c8a6 933e 91c1 e4be e251 73be 8d85 84be
000003a0: e1d7 9f3e efff a83e 81b9 353e 8522 afbd
000003b0: 1d9e d83d b6ea 523e 1027 3f3e e36e c53d
000003c0: e050 dfbd 1a5c dcbe 7fa4 aebd 674f 5dbe
000003d0: fae3 7b3e 65f8 883e 4709 043e 001a 3d3e
000003e0: 5005 83bd 23db fcbd f798 8e3d 961d a03e
000003f0: 2cc8 00be 3b6c 493e 59ac 31be 3bc2 b6bc

mlp_13_1/MLP_0_1/hidden_0_1/BiasAdd/ReadVariableOp:0 f4 [512]
-0.7125673 -0.59992677 -0.4447473 -0.43040785 -0.32711124 -0.6034268 -0.31164244 -0.6343115
-0.576479 -0.26166454 -0.17470017 -0.13466357 -0.07586648 -0.08461096 -0.5631464 -0.30801743
-0.005487856 -0.48739237 -0.43783265 -0.34502134 -0.07697598 0.21836215 -0.42147255 -0.31416896
-0.4440377 -0.4363718 -0.20148477 -0.51157105 -0.49986556 -0.6547803 -0.60760784 -0.08875407
-0.35580352 -0.23676515 -0.17551756 -0.47891045 -0.6500884 -0.5055972 -0.51456 -0.14903507
-0.3062753 -0.38081926 -0.4085781 -0.17585698 -0.29902166 -0.1845871 -0.8427494 -0.15296143
-0.6132698 -0.3348503 -0.05528365 -0.47138333 -0.31113973 -0.2620457 -0.3008148 -0.3553777
-0.2591813 -0.45538735 -0.29651818 -0.57171726 -0.13485448 -0.13605155 -0.23078625 -0.43542916
-0.08006728 -0.54612416 -0.56281 -0.21397445 -0.45190307 -0.5146481 -0.55201197 -0.37499368
-0.2755124 -0.6454961 -0.49096006 -0.38279453 -0.4739769 -0.18455948 -0.5750661 -0.41155487
-0.2612171 -0.36863035 -0.060439233 -0.58229375 -0.55585897 -0.17162925 -0.30648726 -0.91553736
-0.1176669 -0.5171181 -0.25855368 -0.06996029 -0.28619617 -0.40585667 -0.41930726 0.064784884
-0.4161365 -0.26524782 -0.29478323 -0.46143046 -0.19793792 -0.24441457 -0.32190478 -0.16397165
-0.5897766 -0.40567362 -0.2722395 -0.48911536 -0.35479134 -0.61282283 -0.37259653 -0.6503083
-0.30641866 -0.40150535 -0.6703548 -0.44700477 -0.65786445 -0.47359797 -0.1057225 -0.5317135
0.002655338 -0.4922826 -0.341755 -0.30695584 -0.3309004 -0.47605667 -0.20010966 -0.30719218
-0.23306097 -0.2643448 -0.79492164 -0.37906238 -0.33997726 -0.5229164 -0.14888912 -0.24247561
-0.2702966 -0.38084245 -0.19427949 -0.16056812 -0.11216242 -0.56088585 -0.36290702 -0.12996317
-0.10743931 -0.22805905 -0.5878129 -0.23868437 -0.54981536 -0.4372977 0.0076189954 -0.15294185
0.00035127107 -0.4296503 -0.49061364 -0.6212956 -0.43908933 -0.22299863 -0.3935901 -0.2534456
-0.5676342 -0.065195836 -0.4371839 -0.51049227 -0.30447823 -0.53954726 -0.52243286 -0.19307014
-0.12753387 -0.018147625 -0.20675781 -0.28976893 -0.6258288 -0.43602693 -0.20531389 -0.35009643
-0.84130836 -0.13854827 -0.38722348 -0.51083684 -0.18012695 -0.31643564 -0.071570545 -0.7014215
-0.5733247 -0.18922468 -0.03830732 -0.26521719 -0.1133364 -0.37575588 -0.568257 -0.10033568
-0.4054955 -0.23253252 -0.12830421 -0.29472548 -0.3918461 -0.4678877 -0.5379816 -0.22032627
-0.6193037 -0.6769357 -0.33473927 0.05203643 -0.3130437 -0.35259938 -0.1754355 -0.37902677
-0.32584178 -0.26315132 -0.34177384 -0.38425678 -0.2530625 -0.3898022 -0.06943585 -0.62166387
-0.1821563 -0.42379454 -0.022187363 -0.30897146 -0.16448289 -0.6063817 0.0465607 -0.40533265
-0.33071953 -0.58415407 0.075527474 -0.58076626 -0.5088108 -0.09797388 -0.34311923 -0.538387
-0.14922374 -0.51681376 -0.6283128 -0.16421604 -0.32071453 -0.26951638 -0.6816525 -0.43094063
-0.1553046 0.010393747 -0.17429142 -0.46615204 -0.3301457 -0.47445393 0.042542215 -0.23828632
-0.19170561 -0.31666604 -0.43147254 -0.11099151 -0.15267466 -0.31465948 -0.25477478 -0.62332606
00000000: d06a 36bf cd94 19bf ebb5 e3be 6b5e dcbe
00000010: 207b a7be 2e7a 1abf 998f 9fbe 3d62 22bf
00000020: 2194 13bf e5f8 85be 9ae4 32be 3fe5 09be
00000030: e35f 9bbd 8348 adbd 5d2a 10bf 76b4 9dbe
00000040: 79d3 b3bb 7e8b f9be 9a2b e0be a3a6 b0be
00000050: 95a5 9dbd 549a 5f3e 40cb d7be c1da a0be
00000060: e958 e3be 206c dfbe 0652 4ebe 52f6 02bf
00000070: 61ee ffbe af9f 27bf 308c 1bbf b2c4 b5bd
00000080: e12b b6be 9072 72be e0ba 33be c033 f5be
00000090: 326c 26bf d16e 01bf 34ba 03bf a69c 18be
000000a0: 1ed0 9cbe befa c2be 2631 d1be da13 34be
000000b0: 5e19 99be 6704 3dbe 6dbe 57bf eca1 1cbe
000000c0: 40ff 1cbf 8071 abbe 1c71 62bd 2859 f1be
000000d0: b54d 9fbe db2a 86be 6604 9abe 11f4 b5be
000000e0: 69b3 84be 8828 e9be 3bd1 97be 105c 12bf
000000f0: 4b17 0abe 1951 0bbe 3b53 6cbe 92f0 debe
00000100: 50fa a3bd cbce 0bbf 5114 10bf 1e1c 5bbe
00000110: d75f e7be fabf 03bf a850 0dbf 2cff bfbe
00000120: f60f 8dbe 3b3f 25bf 1e5f fbbe a5fd c3be
00000130: 1aad f2be 29fd 3cbe 8837 13bf 52b7 d2be
00000140: 3fbe 85be 1ebd bcbe 218f 77bd 3411 15bf
00000150: c64c 0ebf 94bf 2fbe e6eb 9cbe a860 6abf
00000160: 58fb f0bd da61 04bf 2661 84be 5747 8fbd
00000170: 4e88 92be 72cc cfbe 71af d6be f0ad 843d
00000180: d80f d5be 90ce 87be d4ed 96be 9d40 ecbe
00000190: 3db0 4abe d047 7abe b4d0 a4be 2fe8 27be
000001a0: 99fb 16bf 74b4 cfbe fa62 8bbe 546d fabe
000001b0: 36a7 b5be f5e1 1cbf f9c4 bebe 9b7a 26bf
000001c0: e8e2 9cbe 1c92 cdbe 5f9c 2bbf cfdd e4be
000001d0: ce69 28bf 6f7b f2be 0a85 d8bd 601e 08bf
000001e0: 2e05 2e3b 770c fcbe 83fa aebe 5129 9dbe
000001f0: c76b a9be b3bd f3be 8ce9 4cbe 4b48 9dbe
00000200: 89a7 6ebe 3458 87be fc7f 4bbf 7714 c2be
00000210: 8011 aebe d9dd 05bf 6476 18be 874b 78be
00000220: 5164 8abe c8fd c2be 34f1 46be f86b 24be
00000230: 69b5 e5bd 3796 0fbf f3ce b9be 1115 05be
00000240: 2409 dcbd 5088 69be e87a 16bf ad69 74be
00000250: b3c0 0cbf 7ce5 dfbe c4a8 f93b ca9c 1cbe
00000260: ce2a b839 20fb dbbe b631 fbbe 3a0d 1fbf
00000270: 51d0 e0be c159 64be a484 c9be 9fc3 81be
00000280: 7a50 11bf 6585 85bd 91d6 dfbe 9faf 02bf
00000290: 92e4 9bbe c51f 0abf 29be 05bf 2eb4 45be
000002a0: 3d98 02be 54aa 94bc 52b8 53be 985c 94be
000002b0: 5136 20bf ec3e dfbe ce3d 52be d73f b3be
000002c0: fc5f 57bf 99df 0dbe 2842 c6be 34c6 02bf
000002d0: 3373 38be da03 a2be 9493 92bd 5c90 33bf
000002e0: 68c5 12bf 1dc4 41be 23e8 1cbd 8cca 87be
000002f0: ea1c e8bd 1363 c0be 4a79 11bf cb7c cdbd
00000300: 1b9d cfbe 011d 6ebe 2e62 03be 42e6 96be
00000310: 0da0 c8be fa8e efbe 2ab9 09bf 369d 61be
00000320: b08a 1ebf a84b 2dbf f262 abbe 2724 553d
00000330: 4447 a0be e887 b4be 5da5 33be cc0f c2be
00000340: bcd4 a6be c5bb 86be fbfc aebe 4ebd c4be
00000350: 6891 81be 2794 c7be 6234 8ebd 5d25 1fbf
00000360: 2e87 3abe 99fb d8be 46c2 b5bc 8231 9ebe
00000370: 346e 28be d53b 1bbf 6fb6 3e3d c387 cfbe
00000380: 1254 a9be 1f8b 15bf 26ae 9a3d 19ad 14bf
00000390: 6d41 02bf 88a6 c8bd 53ad afbe bbd3 09bf
000003a0: 1cce 18be e84d 04bf 1cd9 20bf 4028 28be
000003b0: b234 a4be 0dfe 89be c780 2ebf 40a4 dcbe
000003c0: 2b08 1fbe 894a 2a3c 7379 32be 7bab eebe
000003d0: db08 a9be a0eb f2be bf40 2e3d 5401 74be
000003e0: 7a4e 44be 0d22 a2be f8e9 dcbe 844f e3bd
000003f0: bf56 1cbe 0c1b a1be d771 82be 4c92 1fbf

ConstantFolding/mlp_13_1/truediv_recip:0 f4 [101]
1.3511109 1.1483727 1.4121811 0.49739006 0.34798193 0.30221167 12.044498 9.082348
1.8115636 2.4341633 2.3347476 1.213674 3.6446364 16.4985 14.133751 11.901913
9.889598 11.913408 12.888191 12.698031 11.7555065 14.3626175 13.722944 14.479282
12.96764 10.3046875 13.427374 11.77486 11.444124 10.764618 8.799149 10.917915
11.762252 11.111861 11.049873 11.074335 11.891677 11.597715 10.833378 8.723267
10.980547 3.5304246 2.9861665 2.916305 2.5541208 3.327464 2.9926534 2.7311652
2.6486049 3.0908582 3.610361 3.090397 3.1112804 2.5078568 3.1772377 3.5301042
2.986421 2.9142003 2.5541105 3.325932 2.9908657 2.7308288 2.6488657 3.0907843
3.6102948 3.0908668 3.1089725 2.508644 3.1760964 3.529892 2.986701 2.912241
2.5541587 3.3245184 2.9891741 2.730548 2.6491625 3.0908158 3.6102521 3.0913801
3.1068592 2.509519 3.175279 15.350777 12.929521 12.365046 11.005168 14.383156
12.662724 11.867148 11.31359 13.825368 15.606563 13.321218 13.1845045 10.860762
13.669919 2.5470524 2.5541353 1.4164716 1.4163526
00000000: 34f1 ac3f e0fd 923f 5ac2 b43f e9a9 fe3e
00000010: b02a b23e 7dbb 9a3e 44b6 4041 4c51 1141
00000020: 51e1 e73f 55c9 1b40 816c 1540 ab59 9b3f
00000030: b941 6940 eefc 8341 d823 6241 3c6e 3e41
00000040: cb3b 1e41 529d 3e41 0836 4e41 232b 4b41
00000050: 8e16 3c41 48cd 6541 2e91 5b41 24ab 6741
00000060: 747b 4f41 00e0 2441 86d6 5641 d465 3c41
00000070: 221b 3741 e03b 2c41 50c9 0c41 c8af 2e41
00000080: 2f32 3c41 2fca 3141 48cc 3041 7a30 3141
00000090: 4f44 3e41 3e90 3941 8455 2d41 8092 0b41
000000a0: 52b0 2f41 7af2 6140 5a1d 3f40 bea4 3a40
000000b0: b776 2340 2cf5 5440 a287 3f40 69cb 2e40
000000c0: be82 2940 9fd0 4540 2810 6740 10c9 4540
000000d0: 381f 4740 ba80 2040 dd57 4b40 3aed 6140
000000e0: 8621 3f40 4282 3a40 8c76 2340 12dc 5440
000000f0: 586a 3f40 e6c5 2e40 0487 2940 69cf 4540
00000100: 120f 6740 c3d0 4540 68f9 4640 a08d 2040
00000110: 2a45 4b40 c0e9 6140 1c26 3f40 2862 3a40
00000120: 5677 2340 e9c4 5440 a14e 3f40 4cc1 2e40
00000130: e18b 2940 edcf 4540 5f0e 6740 2cd9 4540
00000140: c8d6 4640 f69b 2040 c537 4b40 c89c 7541
00000150: 51df 4e41 3ad7 4541 2b15 3041 6821 6641
00000160: 849a 4a41 d7df 3d41 7704 3541 b534 5d41
00000170: 7bb4 7941 b523 5541 bbf3 5241 aec5 2d41
00000180: fdb7 5a41 e802 2340 f476 2340 f14e b53f
00000190: 0b4b b53f
